…
2021-12-01 21:08:10.614279: I tensorflow/stream_executor/cuda/cuda_dnn.cc:369] Loaded cuDNN version 8201
2021-12-01 21:08:12.067840: I tensorflow/stream_executor/cuda/cuda_blas.cc:1760] TensorFloat-32 will be used for the matrix multiplication. This will only be logged once.
Model: "model"
_________________________________________________________________
Layer (type)                 Output Shape              Param #
=================================================================
input_1 (InputLayer)         [(None, 10, 45)]          0
_________________________________________________________________
gru (GRU)                    (None, 10, 256)           232704
_________________________________________________________________
gru_1 (GRU)                  (None, 10, 256)           394752
_________________________________________________________________
gru_2 (GRU)                  (None, 10, 256)           394752
_________________________________________________________________
gru_3 (GRU)                  (None, 10, 256)           394752
_________________________________________________________________
gru_4 (GRU)                  (None, 10, 256)           394752
_________________________________________________________________
gru_5 (GRU)                  (None, 10, 256)           394752
_________________________________________________________________
gru_6 (GRU)                  (None, 10, 256)           394752
_________________________________________________________________
gru_7 (GRU)                  (None, 10, 256)           394752
_________________________________________________________________
gru_8 (GRU)                  (None, 10, 256)           394752
_________________________________________________________________
gru_9 (GRU)                  (None, 10, 256)           394752
_________________________________________________________________
gru_10 (GRU)                 (None, 10, 256)           394752
_________________________________________________________________
gru_11 (GRU)                 (None, 10, 256)           394752
_________________________________________________________________
gru_12 (GRU)                 (None, 10, 256)           394752
_________________________________________________________________
gru_13 (GRU)                 (None, 10, 256)           394752
_________________________________________________________________
gru_14 (GRU)                 (None, 10, 256)           394752
_________________________________________________________________
gru_15 (GRU)                 (None, 10, 256)           394752
_________________________________________________________________
gru_16 (GRU)                 (None, 10, 256)           394752
_________________________________________________________________
gru_17 (GRU)                 (None, 10, 256)           394752
_________________________________________________________________
gru_18 (GRU)                 (None, 10, 256)           394752
_________________________________________________________________
gru_19 (GRU)                 (None, 10, 256)           394752
_________________________________________________________________
dense (Dense)                (None, 10, 2)             514
=================================================================
Total params: 7,733,506
Trainable params: 7,733,506
Non-trainable params: 0
_________________________________________________________________
training in progress
Epoch 1/50









































































2823/2823 [==============================] - 178s 56ms/step - loss: 0.1398 - accuracy: 0.9910 - val_loss: 0.1390 - val_accuracy: 0.9923
…
