…
2021-12-01 20:59:46.872163: I tensorflow/compiler/mlir/mlir_graph_optimization_pass.cc:185] None of the MLIR Optimization Passes are enabled (registered 2)
2021-12-01 21:00:04.286245: I tensorflow/stream_executor/cuda/cuda_dnn.cc:369] Loaded cuDNN version 8201
Model: "model"
_________________________________________________________________
Layer (type)                 Output Shape              Param #
=================================================================
input_1 (InputLayer)         [(None, 10, 45)]          0
_________________________________________________________________
gru (GRU)                    (None, 10, 256)           232704
_________________________________________________________________
gru_1 (GRU)                  (None, 10, 256)           394752
_________________________________________________________________
gru_2 (GRU)                  (None, 10, 256)           394752
_________________________________________________________________
gru_3 (GRU)                  (None, 10, 256)           394752
_________________________________________________________________
gru_4 (GRU)                  (None, 10, 256)           394752
_________________________________________________________________
gru_5 (GRU)                  (None, 10, 256)           394752
_________________________________________________________________
gru_6 (GRU)                  (None, 10, 256)           394752
_________________________________________________________________
gru_7 (GRU)                  (None, 10, 256)           394752
_________________________________________________________________
gru_8 (GRU)                  (None, 10, 256)           394752
_________________________________________________________________
gru_9 (GRU)                  (None, 10, 256)           394752
_________________________________________________________________
gru_10 (GRU)                 (None, 10, 256)           394752
_________________________________________________________________
gru_11 (GRU)                 (None, 10, 256)           394752
_________________________________________________________________
gru_12 (GRU)                 (None, 10, 256)           394752
_________________________________________________________________
gru_13 (GRU)                 (None, 10, 256)           394752
_________________________________________________________________
gru_14 (GRU)                 (None, 10, 256)           394752
_________________________________________________________________
gru_15 (GRU)                 (None, 10, 256)           394752
_________________________________________________________________
gru_16 (GRU)                 (None, 10, 256)           394752
_________________________________________________________________
gru_17 (GRU)                 (None, 10, 256)           394752
_________________________________________________________________
gru_18 (GRU)                 (None, 10, 256)           394752
_________________________________________________________________
gru_19 (GRU)                 (None, 10, 256)           394752
_________________________________________________________________
dense (Dense)                (None, 10, 2)             514
=================================================================
Total params: 7,733,506
Trainable params: 7,733,506
Non-trainable params: 0
_________________________________________________________________
training in progress
Epoch 1/50
  27/2823 [..............................] - ETA: 2:20 - loss: 0.1314 - accuracy: 0.3854







































































…
