…
2021-12-01 20:13:35.570660: I tensorflow/core/common_runtime/gpu/gpu_device.cc:1510] Created device /job:localhost/replica:0/task:0/device:GPU:9 with 8109 MB memory:  -> device: 9, name: NVIDIA GeForce RTX 3080, pci bus id: 0000:41:00.0, compute capability: 8.6
Model: "model"
_________________________________________________________________
Layer (type)                 Output Shape              Param #
=================================================================
input_1 (InputLayer)         [(None, 10, 45)]          0
_________________________________________________________________
gru (GRU)                    (None, 10, 256)           232704
_________________________________________________________________
gru_1 (GRU)                  (None, 10, 256)           394752
_________________________________________________________________
gru_2 (GRU)                  (None, 10, 256)           394752
_________________________________________________________________
gru_3 (GRU)                  (None, 10, 256)           394752
_________________________________________________________________
gru_4 (GRU)                  (None, 10, 256)           394752
_________________________________________________________________
gru_5 (GRU)                  (None, 10, 256)           394752
_________________________________________________________________
gru_6 (GRU)                  (None, 10, 256)           394752
_________________________________________________________________
gru_7 (GRU)                  (None, 10, 256)           394752
_________________________________________________________________
gru_8 (GRU)                  (None, 10, 256)           394752
_________________________________________________________________
gru_9 (GRU)                  (None, 10, 256)           394752
_________________________________________________________________
gru_10 (GRU)                 (None, 10, 256)           394752
_________________________________________________________________
gru_11 (GRU)                 (None, 10, 256)           394752
_________________________________________________________________
gru_12 (GRU)                 (None, 10, 256)           394752
_________________________________________________________________
gru_13 (GRU)                 (None, 10, 256)           394752
_________________________________________________________________
gru_14 (GRU)                 (None, 10, 256)           394752
_________________________________________________________________
gru_15 (GRU)                 (None, 10, 256)           394752
_________________________________________________________________
gru_16 (GRU)                 (None, 10, 256)           394752
_________________________________________________________________
gru_17 (GRU)                 (None, 10, 256)           394752
_________________________________________________________________
gru_18 (GRU)                 (None, 10, 256)           394752
_________________________________________________________________
gru_19 (GRU)                 (None, 10, 256)           394752
_________________________________________________________________
dense (Dense)                (None, 10, 2)             514
=================================================================
Total params: 7,733,506
Trainable params: 7,733,506
Non-trainable params: 0
_________________________________________________________________
training in progress
2021-12-01 20:13:42.247519: I tensorflow/compiler/mlir/mlir_graph_optimization_pass.cc:185] None of the MLIR Optimization Passes are enabled (registered 2)
Epoch 1/50
2021-12-01 20:13:59.575256: I tensorflow/stream_executor/cuda/cuda_dnn.cc:369] Loaded cuDNN version 8201
…
