…
2021-12-02 20:12:36.491229: I tensorflow/stream_executor/cuda/cuda_dnn.cc:369] Loaded cuDNN version 8201
2021-12-02 20:12:37.812364: I tensorflow/stream_executor/cuda/cuda_blas.cc:1760] TensorFloat-32 will be used for the matrix multiplication. This will only be logged once.
Model: "model"
_________________________________________________________________
Layer (type)                 Output Shape              Param #
=================================================================
input_1 (InputLayer)         [(None, 10, 125)]         0
_________________________________________________________________
gru (GRU)                    (None, 10, 256)           294144
_________________________________________________________________
gru_1 (GRU)                  (None, 10, 256)           394752
_________________________________________________________________
gru_2 (GRU)                  (None, 10, 256)           394752
_________________________________________________________________
gru_3 (GRU)                  (None, 10, 256)           394752
_________________________________________________________________
gru_4 (GRU)                  (None, 10, 256)           394752
_________________________________________________________________
gru_5 (GRU)                  (None, 10, 256)           394752
_________________________________________________________________
gru_6 (GRU)                  (None, 10, 256)           394752
_________________________________________________________________
gru_7 (GRU)                  (None, 10, 256)           394752
_________________________________________________________________
gru_8 (GRU)                  (None, 10, 256)           394752
_________________________________________________________________
gru_9 (GRU)                  (None, 10, 256)           394752
_________________________________________________________________
gru_10 (GRU)                 (None, 10, 256)           394752
_________________________________________________________________
gru_11 (GRU)                 (None, 10, 256)           394752
_________________________________________________________________
gru_12 (GRU)                 (None, 10, 256)           394752
_________________________________________________________________
gru_13 (GRU)                 (None, 10, 256)           394752
_________________________________________________________________
gru_14 (GRU)                 (None, 10, 256)           394752
_________________________________________________________________
gru_15 (GRU)                 (None, 10, 256)           394752
_________________________________________________________________
gru_16 (GRU)                 (None, 10, 256)           394752
_________________________________________________________________
gru_17 (GRU)                 (None, 10, 256)           394752
_________________________________________________________________
gru_18 (GRU)                 (None, 10, 256)           394752
_________________________________________________________________
gru_19 (GRU)                 (None, 10, 256)           394752
_________________________________________________________________
dense (Dense)                (None, 10, 2)             514
=================================================================
Total params: 7,794,946
Trainable params: 7,794,946
Non-trainable params: 0
_________________________________________________________________
training in progress
Epoch 1/50



















































































2823/2823 [==============================] - 192s 61ms/step - loss: 0.0131 - accuracy: 0.9921 - val_loss: 0.0122 - val_accuracy: 0.9924
…
